…
Simulating temporal split into 2 clients:
  client_year_0: 46 samples
  client_year_1: 493 samples

--- Phase 1.4: Domain Adaptation Strategy ---
Applying Domain Adaptation (placeholder: data returned as is).
Domain adaptation applied (placeholder).

--- Phase 1.5: Continuous Drift Monitoring ---
Monitoring Data Drift (placeholder).
Data drift detected: False (placeholder).

--- Phase 2: Core Model Development and Optimization ---
Step 2.1: Initializing Triage Model...
Triage Model initialized.
Model input dimensions: Numerical=7, Boolean=268, Temporal=3
Number of output classes: 3
Model architecture:
 TriageModel(
  (numerical_fc1): Linear(in_features=7, out_features=64, bias=True)
  (numerical_bn1): BatchNorm1d(64, eps=1e-05, momentum=0.1, affine=True, track_running_stats=True)
  (numerical_fc2): Linear(in_features=64, out_features=32, bias=True)
  (numerical_bn2): BatchNorm1d(32, eps=1e-05, momentum=0.1, affine=True, track_running_stats=True)
  (boolean_fc1): Linear(in_features=268, out_features=128, bias=True)
  (boolean_bn1): BatchNorm1d(128, eps=1e-05, momentum=0.1, affine=True, track_running_stats=True)
  (boolean_fc2): Linear(in_features=128, out_features=64, bias=True)
  (boolean_bn2): BatchNorm1d(64, eps=1e-05, momentum=0.1, affine=True, track_running_stats=True)
  (temporal_fc1): Linear(in_features=3, out_features=32, bias=True)
  (temporal_bn1): BatchNorm1d(32, eps=1e-05, momentum=0.1, affine=True, track_running_stats=True)
  (fusion_fc1): Linear(in_features=128, out_features=128, bias=True)
  (fusion_bn1): BatchNorm1d(128, eps=1e-05, momentum=0.1, affine=True, track_running_stats=True)
  (fusion_fc2): Linear(in_features=128, out_features=64, bias=True)
  (fusion_bn2): BatchNorm1d(64, eps=1e-05, momentum=0.1, affine=True, track_running_stats=True)
  (output_layer): Linear(in_features=64, out_features=3, bias=True)
)

Step 2.2: Resource Optimization (TinyML)...

Applying Quantization (skipped for now due to backend issues)...

Applying Pruning...
Pruning applied: 50.0% of connections removed from linear layers.
Pruning applied.

Demonstrating Knowledge Distillation (requires training data)...
Starting knowledge distillation for 2 epochs...
Epoch 1/2, Loss: 0.6019
Epoch 2/2, Loss: 0.4009
…
